Q2/digit_recognizer_model.pth (torch, 33992 bytes, 4 tensors)

fc1.weight f4 [10, 784]
0	0xbd10e5d4	-0.03537543
1	0xbd058fe4	-0.032607928
2	0x3c7c2fb8	0.015392236
3	0x3c038ab0	0.008028671
4	0x3aaaffe0	0.0013046227
5	0xbb315350	-0.0027057715
6	0xba4dd4c0	-0.00078518316
7	0x3ba398b0	0.004992567
8	0xbbffa130	-0.0078011975
9	0x3b899900	0.004199147
10	0xbcd0423e	-0.025422212
11	0x3ce551ee	0.027993169
12	0xbc2b6bc0	-0.010462701
13	0x3d255e2b	0.04037301
14	0xbc41aa9a	-0.01182046
15	0xb9d728c2	-0.00041038363
16	0xbc45aba0	-0.012064844
17	0x3d039beb	0.032131117
18	0xbd0d6473	-0.034519624
19	0x3c2f2710	0.010690466
20	0xbbc2c7a4	-0.005944209
21	0xbcec658a	-0.028857011
22	0x3c8a0eec	0.016852818
23	0xbcf0f9c8	-0.02941598
24	0xbab7fa00	-0.0014036298
25	0xbcfe6afe	-0.031056877
26	0xbd119ccb	-0.03554992
27	0xbb1fdf10	-0.002439443
28	0x3cda72d8	0.02666609
29	0x3ca6452e	0.02029666
30	0x3ce5568e	0.027995374
31	0xbb2e33d0	-0.0026581176
32	0x3d0e410f	0.034730013
33	0xbc8d1c7c	-0.017225496
34	0x3cbe12bc	0.023202293
35	0xbb6136dc	-0.0034364974
36	0x3d63efcc	0.05564861
37	0x3cc6e9d8	0.024281427
38	0x3cd1e9d0	0.025624186
39	0x3d52f6c4	0.051504865
40	0x3cac0a1f	0.02100092
41	0x3c72cf47	0.014819927
42	0xbd07c010	-0.03314215
43	0x3cb91b34	0.02259598
44	0x3d6c42b7	0.05768081
45	0x3cae1ceb	0.021254024
46	0x3d3193a2	0.043353684
47	0xbca59d4b	-0.020216605
48	0x3c40fd33	0.011779117
49	0x3c1f9dee	0.009742243
50	0x3b367e64	0.002784633
51	0x3ce46292	0.027879033
52	0x3bce9bf0	0.0063052103
53	0x3b2fdef0	0.0026835762
54	0xbcd3f235	-0.02587233
55	0xbd116d22	-0.035504468
56	0x3c8eb204	0.017418869
57	0x3cb94f7a	0.022620905
58	0xbcee1a4e	-0.029065277
59	0xbcae6bbe	-0.02129161
60	0x3b57abc2	0.0032908772
61	0x3c3dd2e9	0.011585929
62	0x3d13d0a5	0.03608765
63	0x3da17e00	0.07885361
64	0x3d968f4d	0.07351551
65	0x3d10c81d	0.035347093
66	0x3e1049a1	0.14090587
67	0x3e0cabbb	0.13737385
68	0x3e03b285	0.12861069
69	0x3deebdb2	0.11657275
70	0x3d983b05	0.07433132
71	0x3d25b670	0.04045719
72	0xbb022263	-0.0019856922
73	0x3c8f06ed	0.017459357
74	0x3ceb95c1	0.028757932
75	0x3d312d6f	0.04325622
76	0x3d2c5e97	0.042082395
77	0x3db8e065	0.09027175
78	0x3ce8b310	0.028405696
79	0x3ccefe41	0.025267722
80	0xbcb9048f	-0.022585182
81	0xbd077c95	-0.033077795
82	0xbb05a720	-0.0020393804
83	0x3ca4e07a	0.02012657
84	0xbc56b6aa	-0.013105074
85	0x3bda5428	0.0066628642
86	0xbc307a0d	-0.010771287
87	0x3ced6fd3	0.028983986
88	0x3bbc94b7	0.005755033
89	0x3c6cef35	0.014461328
90	0x3cdfb0f2	0.027306054
91	0x3cc9bb49	0.024625437
92	0x3ddba19c	0.10724184
93	0x3dc508cc	0.096208185
94	0x3e22b01a	0.1588749
95	0x3e8c6bac	0.27425897
96	0x3e352aad	0.17692061
97	0x3e78ae57	0.24285255
98	0x3e7eea27	0.2489401
99	0x3dfe0b9e	0.124045596
100	0x3df228ee	0.11824213
101	0x3e12171e	0.14266631
102	0x3d841e39	0.06451077
103	0x3d8b47eb	0.06800827
104	0x3d708dd1	0.058728997
105	0x3ca2541b	0.019815495
106	0x3b8967b6	0.0041932715
107	0x38ecd0f8	0.000112922804
108	0xbd34c62f	-0.044134315
109	0xbc4c111f	-0.012455254
110	0x3c00a7a9	0.007852473
111	0x3cfb42b2	0.030671451
112	0x3cf6977a	0.030101527
113	0x3b48585b	0.0030570242
114	0xbc0e6963	-0.008692118
115	0xbd087678	-0.033316106
116	0x3d25f15c	0.04051338
117	0xbb90dd38	-0.0044209026
118	0x3d2ad99d	0.04171144
119	0x3d7e0be1	0.062023047
120	0x3dd4f179	0.1039762
121	0x3dfcb9a9	0.12340099
122	0x3db6d4cd	0.08927307
123	0x3dd65e5d	0.10467217
124	0x3dd966a9	0.10615284
125	0x3d765148	0.06013611
126	0x3c8a3f55	0.016875902
127	0xbdb09e9e	-0.08624004
128	0x3be0b400	0.006857395
129	0x3cedc71b	0.029025605
130	0xbdc8478c	-0.097792715
131	0xbd9a52a8	-0.07535297
132	0x3ce12304	0.027482517
133	0xbde00e19	-0.10940189
134	0xbdf37dd7	-0.118892364
135	0xbde5d36c	-0.11221966
136	0xbe44bd0b	-0.19212739
137	0xbd8346c5	-0.064099826
138	0x3c8fa9ed	0.017537082
139	0xbce0dbc9	-0.027448552
140	0xbd04975c	-0.03237091
141	0x3cc5c138	0.024139985
142	0xbcc95719	-0.024577664
143	0xbcaa8583	-0.020815616
144	0x3cb065ab	0.021532854
145	0x3b8011bf	0.0039083655
146	0x3cddbc3a	0.027067292
147	0xbd0c3e0c	-0.03423886
148	0x3d099546	0.033589624
149	0xbd0f2ca8	-0.034954697
150	0xbb6fdacc	-0.003659892
151	0xbde491be	-0.111606106
152	0x3d21980d	0.039451648
153	0x3da81f90	0.08209145
154	0x3daeccd9	0.08535165
155	0x3d961eac	0.07330069
156	0x3dfc15da	0.12308855
157	0x3dcd313f	0.100191586
158	0x3db3c87e	0.08778475
159	0x3d3960f0	0.045258462
160	0xbd0db938	-0.034600466
161	0xbd8630c1	-0.06552268
162	0xbe190c7d	-0.1494617
163	0xbe43f91e	-0.19138
164	0xbe3ce4a0	-0.18446589
165	0xbd9fdb89	-0.07805545
166	0xbccc18af	-0.024914114
167	0x3d1f325b	0.038866382
168	0x3ce31632	0.027720544
169	0x3cf9fdcb	0.030516526
170	0x3ba3f9e0	0.0050041527
171	0x3d5a8121	0.053345803
172	0x3d73fece	0.059569173
173	0x3d20ed02	0.03928853
174	0xbd137ce8	-0.03600779
175	0xbc7059ee	-0.014669878
176	0xbe2a88d1	-0.16653754
177	0xbe16dd5e	-0.14732882
178	0xbe273a52	-0.16330841
179	0xbe615f0b	-0.22008912
180	0xbe0534ab	-0.13008372
181	0xbd95fac3	-0.073232196
182	0xbcfa9f17	-0.030593438
183	0x3cd6e7a4	0.026233502
184	0x3dc4a2ab	0.09601339
185	0x3ccef9ef	0.025265662
186	0x3d394ad3	0.045237374
187	0xbdd2ebdc	-0.10298893
188	0xbe011038	-0.12603843
189	0x3cecf942	0.02892745
190	0xbd446a94	-0.047953203
191	0xbe5b45e7	-0.21413384
192	0xbe5274fa	-0.20552436
193	0xbdff752a	-0.12473519
194	0xbda15049	-0.07876641
195	0x3c2134d7	0.009839258
196	0x3cd5f99c	0.02612
197	0x3b191014	0.002335553
198	0x3c79d005	0.01524735
199	0x3ae5f445	0.0017544111
200	0x3d88621d	0.066593386
201	0x3d28d181	0.041215423
202	0xbd5052d6	-0.05086025
203	0xbe16f84d	-0.14743157
204	0xbe6648e6	-0.22488746
205	0xbe2d8a5c	-0.16947311
206	0xbe1619a4	-0.14658219
207	0xbd9147c8	-0.07093769
208	0xbe1acd8d	-0.15117474
209	0xbdd1a2d6	-0.102361366
210	0x3b9070cf	0.004407979
211	0xbd9027fd	-0.07038877
212	0xbd97fd4b	-0.07421359
213	0xbde3b123	-0.111177705
214	0xbd903e66	-0.070431516
215	0xbda3b85d	-0.07994149
216	0xbe229fbc	-0.15881246
217	0xbdf35d68	-0.1188305
218	0xbd63f81e	-0.055656545
219	0xbe319c5e	-0.17344806
220	0xbe8476e8	-0.25871968
221	0xbe415328	-0.18879378
222	0xbd68803e	-0.056762926
223	0xbb835690	-0.004008122
224	0x3b1b424d	0.0023690641
225	0xbd01fb46	-0.031733774
226	0xbc77cd83	-0.015124681
227	0xbc053239	-0.00812965
228	0x3dee6e3f	0.116421215
229	0xbd41f032	-0.04734821
230	0xbe094cd9	-0.13408221
231	0xbddbd217	-0.10733431
232	0xbe2f4934	-0.17117769
233	0xbdf51be5	-0.11968211
234	0xbd9790e1	-0.0740068
235	0xbda9a208	-0.08282858
236	0xbe1db001	-0.15399171
237	0xbe37db65	-0.17954786
238	0xbc8110d3	-0.015755093
239	0x3db56897	0.088578396
240	0x3bda5e38	0.006664064
241	0xbafe358d	-0.0019394621
242	0xbe075c30	-0.1321876
243	0xbd0eb559	-0.034840915
244	0x3a3f6fba	0.00073027203
245	0xbd550314	-0.05200489
246	0xbd8e89ec	-0.069599
247	0xbe662ad0	-0.22477269
248	0xbeb2503f	-0.34826848
249	0xbe9fbab3	-0.31197128
250	0xbd9ee46d	-0.077584125
251	0xbd1893bb	-0.03725026
252	0xbd119590	-0.035543025
253	0xbc69fd80	-0.0142816305
254	0xbce26a1b	-0.027638486
255	0x3cb29af3	0.021802401

fc1.bias f4 [10]
0	0x3e883fde	0.26611227
1	0x3e9b3e6b	0.3032106
2	0x3edd4d9d	0.43223277
3	0x3ddfa8fe	0.109209046
4	0xbcac9f9b	-0.0210722
5	0x3e4c34d9	0.19942035
6	0xbe69d5b4	-0.22835428
7	0x3eacd92d	0.33759442
8	0xbf26657e	-0.64998615
9	0x3e6db125	0.23212107

fc2.weight f4 [10, 10]
0	0x3f62d304	0.88603234
1	0xbea7830f	-0.32717177
2	0xbd1dd208	-0.03853038
3	0xbf79a313	-0.97514457
4	0x3c8d476e	0.017245974
5	0x3f182f2f	0.59446996
6	0x3e4b3e1e	0.19847915
7	0x3f1086a3	0.5645544
8	0x3eba291d	0.36359492
9	0xbe361f72	-0.17785433
10	0xbf808b4e	-1.0042512
11	0x3f04d4a5	0.5188697
12	0xbd3b6cc8	-0.04575804
13	0x3eb31f98	0.34985042
14	0xbd91783c	-0.07103011
15	0xbff00f5b	-1.8754686
16	0x3f1d58f8	0.6146388
17	0x3f38131b	0.7190415
18	0xbf687792	-0.9080745
19	0x3e6c07c6	0.2304984
20	0x3f492180	0.7856674
21	0xbe3b4244	-0.18286997
22	0xbc03ea26	-0.008051431
23	0xbf0f143b	-0.55890244
24	0xbebf0d40	-0.37314796
25	0xbe85ca4b	-0.261309
26	0x3f844034	1.0332093
27	0xbec75286	-0.38930148
28	0x3fa89fc4	1.3173757
29	0xbebaedab	-0.3650945
30	0xbe434a51	-0.19071318
31	0x3e8a06c5	0.2695829
32	0x3ecc8e0d	0.39952126
33	0x3e1defcc	0.15423506
34	0xbd1780cf	-0.036988076
35	0xbf544590	-0.82918644
36	0xbf04cc3c	-0.51874137
37	0x3f2b9cb6	0.67035997
38	0x3f8971ac	1.0737815
39	0x3f652814	0.8951428
40	0x3eeead6e	0.4661669
41	0xbe2f6512	-0.17128399
42	0x3f2c0668	0.67197275
43	0x3f57e990	0.84340763
44	0xbe2002e0	-0.15626097
45	0x3f3fc021	0.7490254
46	0xbf1c61bf	-0.6108665
47	0xbfd8336e	-1.6890695
48	0xbf6761ed	-0.903838
49	0xbee2f508	-0.4432757
50	0xbf805644	-1.0026326
51	0xbfbf8429	-1.4962207
52	0x3ea1b1ff	0.31581113
53	0x3da9ac19	0.08284778
54	0xbdf286ba	-0.11842103
55	0x3cf2e1f5	0.02964876
56	0xbe032a05	-0.12808998
57	0x3fa2f20f	1.273012
58	0x3eb27775	0.34856763
59	0x3fc0e1ea	1.5068944
60	0x3fc4b1f1	1.5366803
61	0xbf531d44	-0.8246653
62	0x3e6bb8b7	0.23019682
63	0x3f3f2b27	0.7467522
64	0x3ef27c49	0.47360447
65	0xbeee7e66	-0.4658081
66	0x3eed5e29	0.463609
67	0xbe97604c	-0.29565656
68	0xbfcd677e	-1.6047208
69	0xbf55c027	-0.83496326
70	0xbec4a5ec	-0.38407838
71	0x3fd3da46	1.6550987
72	0x3f955d8a	1.1669171
73	0xbff6f2af	-1.9292811
74	0xbe4f91e3	-0.20270495
75	0x3f1c80f3	0.6113426
76	0x3dc30f9b	0.09524461
77	0xbeee74a7	-0.46573374
78	0x3d84dd68	0.064875424
79	0xbf01dcd2	-0.5072757
80	0xbed8f138	-0.42371535
81	0xbe3a21aa	-0.18176904
82	0x3cb7d0d2	0.02243844
83	0x3d228154	0.03967412
84	0xbd7e63d0	-0.062106907
85	0x3f19e66c	0.6011722
86	0x3f8950bc	1.0727763
87	0x3e19df72	0.15026644
88	0x3e9d6182	0.30738455
89	0xbf6136c9	-0.8797422
90	0x3e5591d9	0.20856418
91	0x3f3e35b7	0.7430071
92	0xbfc24a5c	-1.5178943
93	0x3e947c5b	0.29001126
94	0xbb10909a	-0.0022058845
95	0x3f907867	1.1286744
96	0xbfb9e177	-1.4521931
97	0xbf067fa8	-0.5253854
98	0xbf6fa476	-0.9361032
99	0x3eb8a0b3	0.36060104

fc2.bias f4 [10]
0	0xbf4b7186	-0.794701
1	0x3ecc5c49	0.39914158
2	0x3f0eb18a	0.55739653
3	0xbf0ec412	-0.5576793
4	0x3e8ff69b	0.28117833
5	0x3f8899d7	1.0671948
6	0xbe028551	-0.12746169
7	0x3eea3a97	0.45747826
8	0xbfa69b42	-1.3016131
9	0x3cf8e67f	0.030383347
